cnn_IBP_large(
  (normalizer): Normalization()
  (blocks): Sequential(
    (layers): ModuleList(
      (0): Normalization()
      (1): Conv2d(
        (conv): Conv2d(1, 64, kernel_size=(3, 3), stride=(1, 1), padding=(1, 1))
      )
      (2): ReLU()
      (3): Conv2d(
        (conv): Conv2d(64, 64, kernel_size=(3, 3), stride=(1, 1), padding=(1, 1))
      )
      (4): ReLU()
      (5): Conv2d(
        (conv): Conv2d(64, 128, kernel_size=(3, 3), stride=(2, 2), padding=(1, 1))
      )
      (6): ReLU()
      (7): Conv2d(
        (conv): Conv2d(128, 128, kernel_size=(3, 3), stride=(1, 1), padding=(1, 1))
      )
      (8): ReLU()
      (9): Conv2d(
        (conv): Conv2d(128, 128, kernel_size=(3, 3), stride=(1, 1), padding=(1, 1))
      )
      (10): ReLU()
      (11): Flatten()
      (12): Linear(
        (linear): Linear(in_features=25088, out_features=512, bias=True)
      )
      (13): ReLU()
      (14): Linear(
        (linear): Linear(in_features=512, out_features=10, bias=True)
      )
    )
  )
)
Verify test_idx = 17
tot_tests: 1, verified: 1.00000 [1/1], nat_ok: 1.00000 [1/1], latent_ok: 1.00000 [1/1], pgd_ok: 1.00000 [1/1]
=====================================
Verify test_idx = 22
tot_tests: 2, verified: 1.00000 [2/2], nat_ok: 1.00000 [2/2], latent_ok: 1.00000 [2/2], pgd_ok: 1.00000 [2/2]
=====================================
…
